model_weights.pth (torch, 820446 bytes, 16 tensors)

encoder.0.weight f4 [64, 3, 3, 3]
0	0xbdce4b2c	-0.10072932
1	0x3dbae6ba	0.09126039
2	0xbddb68ec	-0.10713372
3	0xbe424d09	-0.18974699
4	0x3d40d695	0.04707964
5	0x3d99bc65	0.075066365
6	0xbda0488a	-0.07826336
7	0xbe218fac	-0.15777463
8	0xbe03d06e	-0.12872478
9	0xbc12e4bd	-0.008965668
10	0xbdf4eea5	-0.1195958
11	0x3dba2edb	0.09090968
12	0x3d0a59f6	0.0337772
13	0x3d7399cd	0.059472848
14	0x3d09bd18	0.0336276
15	0x3e061c3d	0.1309671
16	0xbbe63a91	-0.0070260246
17	0x3e05b0d6	0.13055739
18	0xbd79b8d5	-0.060967285
19	0x3d2c12ad	0.042009998
20	0x3e13aca5	0.14421327
21	0xbe2fccd4	-0.1716798
22	0x3dd776f1	0.10520733
23	0x3cfa76f3	0.030574298
24	0xbdd84adc	-0.10561153
25	0x3d3c4fef	0.045974668
26	0xbdba35ee	-0.090923175
27	0xbe28a51e	-0.16469237
28	0x3e1532eb	0.14570205
29	0xbdaa3d69	-0.08312494
30	0xbc181490	-0.009282246
31	0xbc9e09bd	-0.019291753
32	0xbd9357d8	-0.07194489
33	0x3e332ce8	0.17497599
34	0xbcc7b7e6	-0.024379682
35	0x3c24b58a	0.010053048
36	0xbe235a03	-0.15952305
37	0x3d088076	0.033325635
38	0x3d23882a	0.039924778
39	0x3e133458	0.14375436
40	0x3c8e9764	0.017406173
41	0x3df986fd	0.1218395
42	0xbe34f42c	-0.17671269
43	0xbe0e28cd	-0.13882752
44	0xbe0d2950	-0.1378529
45	0x3d1c7361	0.03819597
46	0xbdbf68fb	-0.09346195
47	0xbd751ba6	-0.05984082
48	0xbdc58c53	-0.09645905
49	0x3e1bd146	0.1521655
50	0xbe4c808e	-0.19970915
51	0x3d6bb090	0.05754143
52	0xbd07df48	-0.033171922
53	0xbe0f9c08	-0.14024365
54	0x3e33fd21	0.1757703
55	0x3df8a9ba	0.12141748
56	0xbe2c2a7d	-0.16813083
57	0xbd910c50	-0.070824265
58	0x3e338c3f	0.17533968
59	0xbe40a2b0	-0.1881206
60	0x3e1a0e09	0.15044416
61	0xbe00528d	-0.1253149
62	0x3e27b371	0.16377045
63	0xbdccade6	-0.09994106
64	0x3de21686	0.11039452
65	0xbe08121b	-0.13288157
66	0xbe1ed07a	-0.15509215
67	0x3ccfcd3c	0.025366418
68	0x3da5ce9f	0.080960505
69	0x3d2296b8	0.039694518
70	0xbd47a559	-0.048741672
71	0xbe343f1a	-0.17602196
72	0xbdf4d7ab	-0.11955198
73	0xbcfd8b2b	-0.03095015
74	0x3e16e329	0.14735092
75	0x3e0f945e	0.14021441
76	0x3df4946f	0.11942374
77	0xbc4fd301	-0.012684585
78	0xbe36b71b	-0.17843287
79	0xbd5d2534	-0.053990558
80	0xbe11afff	-0.14227293
81	0x3df0b248	0.117527544
82	0xbd0cbbd0	-0.0343588
83	0x3e1259b1	0.14292027
84	0x3dfa5c88	0.1222468
85	0xbe0acd1c	-0.13554806
86	0xbe2d9611	-0.16951777
87	0x3d1c8f52	0.03822262
88	0x3d958a0c	0.07301721
89	0xbd8ba4e5	-0.068185605
90	0x3de11f44	0.109922916
91	0xbd30a2da	-0.043124057
92	0x3d418c6d	0.04725306
93	0xbd244f65	-0.04011478
94	0x3db42e8e	0.08797942
95	0x3e3f149d	0.18660207
96	0xbde26e67	-0.11056214
97	0x3d9595a1	0.0730393
98	0xbe248415	-0.1606601
99	0xbd99c192	-0.07507624
100	0x3db736fb	0.089460336
101	0x3dd5f0a8	0.10446292
102	0x3e3ce716	0.18447527
103	0x3b0676a1	0.0020517486
104	0xbe10bc99	-0.14134444
105	0x3de8c304	0.11365321
106	0xbd8377af	-0.06419312
107	0x3e3e75d3	0.18599634
108	0x3d570d68	0.05250302
109	0x3df34e63	0.118801855
110	0xbe319dbf	-0.17345332
111	0xbe42e4ad	-0.19032545
112	0xbc31710b	-0.010830174
113	0xbe14efb6	-0.14544567
114	0x3e27be62	0.16381219
115	0xbda3923b	-0.079868756
116	0xbd788d67	-0.060681727
117	0xbc58af00	-0.013225317
118	0xbd21d0a8	-0.03950563
119	0x3dbbd576	0.09171574
120	0xbdbc4933	-0.09193649
121	0xbe05e973	-0.13077335
122	0xbc6136a0	-0.013745934
123	0x3d33eec6	0.043928884
124	0xbd1e553a	-0.038655497
125	0xbd5e02df	-0.054201957
126	0x3d2dad79	0.042401765
127	0x3c43bc9c	0.011946823
128	0xbdf17d75	-0.11791507
129	0x3de90055	0.113770165
130	0xbdef9e48	-0.11700112
131	0x3dbb6304	0.09149745
132	0x3e1069f7	0.14102922
133	0xba929e19	-0.0011186033
134	0x3dcd9034	0.1003727
135	0xbe2770e1	-0.16351654
136	0x3dac0377	0.08399098
137	0xbd6ee18d	-0.05832057
138	0xbcba9375	-0.022775391
139	0xbcf3e22b	-0.029770931
140	0x3d64649f	0.055760022
141	0x3e43f9cd	0.1913826
142	0xbd9169c4	-0.07100251
143	0x3e21d5fc	0.15804285
144	0x3d6f47c3	0.058418047
145	0x3e3392b1	0.17536427
146	0xbda7682d	-0.08174167
147	0x3c9bbac6	0.019009959
148	0xbe2823be	-0.16419885
149	0xbcead1f9	-0.028664576
150	0xbe35b45d	-0.17744584
151	0x3e119b50	0.14219403
152	0x3bc20ec4	0.0059221704
153	0x3e43bac2	0.19114211
154	0x3e1283d6	0.14308104
155	0xbcc6e4a0	-0.024278939
156	0xbe01983e	-0.12655732
157	0xbd822cfe	-0.06356238
158	0x3dd77932	0.10521163
159	0x3dec852f	0.1154884
160	0x3da10e58	0.07864064
161	0x3d9ce76a	0.07661326
162	0x3d50ae7d	0.050947655
163	0x3cd9dd6f	0.026594846
164	0x3e2b4c4a	0.1672832
165	0x3d9e86c5	0.07740549
166	0xbe156214	-0.14588195
167	0xbe2f58c6	-0.17123708
168	0xbe03403d	-0.12817474
169	0xbe3ff893	-0.18747167
170	0x3d26d7ca	0.040733136
171	0x3e1a9339	0.15095223
172	0xbe238f92	-0.15972736
173	0x3da4397c	0.08018777
174	0xbb94ee0a	-0.004544978
175	0x3d2d4992	0.04230649
176	0x3df12c7e	0.11776064
177	0x3e21050d	0.15724583
178	0x3e325732	0.17416075
179	0xbd713ced	-0.058895994
180	0xbcf63e23	-0.030058926
181	0xbdc01c51	-0.09380401
182	0x3de316cf	0.11088335
183	0x3e1d3b8f	0.15354751
184	0xbd8a0fb7	-0.067412786
185	0xbe11f502	-0.1425362
186	0xbe203f2d	-0.156491
187	0x3d94e24f	0.072697274
188	0xbdff57e1	-0.124679334
189	0x3e36f5d5	0.17867215
190	0x3b1810a2	0.0023203273
191	0xbd9df538	-0.077127874
192	0xbd1790ac	-0.037003204
193	0xbda102e4	-0.078618795
194	0xbc1c877c	-0.009553786
195	0xbd76df28	-0.060271412
196	0xbdb12134	-0.08648911
197	0x3d8b5529	0.068033524
198	0x3d43c1a1	0.04779208
199	0xbdfb28fb	-0.12263676
200	0x3e2a2d44	0.1661883
201	0x3e392eb9	0.1808423
202	0xbe24e884	-0.16104323
203	0x3dca2a7c	0.098713845
204	0x3e2a7364	0.1664558
205	0xbd8e08eb	-0.06935295
206	0x3e3fad8d	0.18718548
207	0xbd911aa2	-0.07085158
208	0x3dda6ed8	0.10665673
209	0xbd9bbee5	-0.076047696
210	0x3e119db5	0.14220317
211	0xbdca4929	-0.098772354
212	0x3e3c6652	0.18398407
213	0x3d30c3f8	0.04315564
214	0x3db12fc5	0.086516894
215	0xbcf35c87	-0.029707206
216	0xbdf73312	-0.12070288
217	0x3dcbdef1	0.09954632
218	0x3da4a309	0.08038909
219	0x3d17ef13	0.037093233
220	0x3dd03a96	0.101674244
221	0x3deed098	0.1166088
222	0x3bc021d9	0.00586341
223	0x3d14f12d	0.036362816
224	0xbe38f3d0	-0.18061757
225	0xbe4540ae	-0.19262955
226	0xbc4250b4	-0.011860061
227	0xbe22dc18	-0.15904272
228	0x3dd1a22f	0.10236012
229	0x3e2f3190	0.1710875
230	0x3bf2fc3f	0.007415324
231	0x3e34f661	0.17672111
232	0x3dd06931	0.10176314
233	0xbd60943b	-0.054828864
234	0xbc84cbe9	-0.016210513
235	0xbd301145	-0.04298522
236	0xbd0a3cbf	-0.03374934
237	0x3e2c7d3d	0.1684465
238	0x3d5ceffb	0.0539398
239	0x3e00bebc	0.1257276
240	0xbdc967b8	-0.09834236
241	0x3b15247f	0.002275735
242	0x3e2242c7	0.15845786
243	0xbc0bd64c	-0.008534979
244	0x3c1117e6	0.0088557955
245	0xbda34e1d	-0.07973883
246	0xbe43bff6	-0.19116196
247	0x3d0f54c5	0.034992952
248	0x3db6ac03	0.089195274
249	0x3deb5d72	0.11492433
250	0xbe291c93	-0.16514806
251	0x3debf2b9	0.11520905
252	0xbdf9363f	-0.1216855
253	0xbcc18e18	-0.023627326
254	0xbdf73e14	-0.12072387
255	0x3cf9123c	0.030404203

encoder.0.bias f4 [64]
0	0x3d99ccbd	0.07509754
1	0x3d15a988	0.03653863
2	0xbd824a26	-0.06361799
3	0xbc82ab92	-0.015950952
4	0x3dcad9c8	0.0990482
5	0x3da2bc84	0.07946113
6	0x3e104c0a	0.14091507
7	0xbcee65d1	-0.029101284
8	0xbd25acd1	-0.040448014
9	0x3dc23f72	0.094847575
10	0x3def4cba	0.11684556
11	0x3e0e362e	0.13887855
12	0x3e18b92d	0.14914389
13	0xbdf5c824	-0.120010644
14	0x3ce08d3a	0.027411092
15	0xbdee6f36	-0.116423056
16	0xbe3b21ff	-0.18274687
17	0x3d8988ee	0.067155704
18	0x3e00080f	0.12503074
19	0x3e196135	0.14978488
20	0xbe0c929f	-0.13727807
21	0x3e451440	0.19246006
22	0xbbb89a1e	-0.0056336066
23	0xbe1f04d0	-0.1552918
24	0x3e349178	0.17633617
25	0xbd7a66ec	-0.06113331
26	0xbe310370	-0.17286468
27	0xbdc2580e	-0.09489451
28	0xbb742f0c	-0.0037259487
29	0x3e1b5e67	0.1517273
30	0xbe427f4f	-0.18993877
31	0xbdc3b1bc	-0.095553845
32	0x3e1c29fa	0.15250388
33	0xbde516a7	-0.11185961
34	0x3e22ac3b	0.15886013
35	0x3c7de7c5	0.015497153
36	0xbe184f86	-0.14874086
37	0xbdca87dd	-0.09889195
38	0x3c84fc99	0.01623373
39	0x3dde82cc	0.10864791
40	0xbd8c2cc4	-0.06844476
41	0x3e21172c	0.15731496
42	0xbe2bb43c	-0.16767973
43	0x3e139be9	0.14414944
44	0x3d5a41fe	0.05328559
45	0xbd5655de	-0.052327983
46	0xbe2b3eb6	-0.16723141
47	0xbda5b40a	-0.0809098
48	0xbb4390fc	-0.0029841056
49	0x3e36833d	0.17823501
50	0xbe06688e	-0.13125822
51	0xbd113f18	-0.03546056
52	0x3cb76f45	0.022391925
53	0x3d89d0cc	0.06729278
54	0xbe33f7a0	-0.1757493
55	0xbdd41015	-0.1035463
56	0x3db6d4d8	0.089273155
57	0x3e0ebad9	0.13938464
58	0x3d0096aa	0.031393684
59	0xbe18264a	-0.14858356
60	0x3d215053	0.039383244
61	0x3e267c99	0.16258468
62	0xbe39c201	-0.18140413
63	0xbe30a51b	-0.17250483

encoder.2.weight f4 [64, 64, 3, 3]
0	0xbcbd43c5	-0.023103604
1	0xbcb6a773	-0.022296643
2	0xbae762d9	-0.001765336
3	0x3cbae2bf	0.0228132
4	0x3cc40ac3	0.023930913
5	0xba9917b9	-0.0011680044
6	0xbcd2f9bc	-0.025753848
7	0xbd124cd5	-0.035717804
8	0x3b5f31e6	0.0034056841
9	0xbc51f4ff	-0.012814759
10	0xbc831afa	-0.016004074
11	0xbc3a10a2	-0.011356505
12	0x3ced04b9	0.028932916
13	0xbae17869	-0.0017202023
14	0xbc55e600	-0.013055325
15	0xbcf0c04c	-0.02938857
16	0x3b325e22	0.0027216752
17	0x3c5510aa	0.013004461
18	0xbbd335ba	-0.0064456137
19	0xbb9d654b	-0.004803335
20	0xbc160847	-0.009157247
21	0xbb8a7b82	-0.004226149
22	0xbce23ab9	-0.027615892
23	0x3cd621c6	0.026139151
24	0xbc815d8b	-0.015791675
25	0x3d15972c	0.03652112
26	0xbcb36013	-0.021896398
27	0x3d013741	0.031546835
28	0x3d0735f0	0.033010423
29	0xbc8fe549	-0.017565386
30	0x3c523956	0.012831053
31	0x3c4c5c6a	0.012473205
32	0xbc8a5268	-0.016884997
33	0xbc330301	-0.010926009
34	0x3cd664d2	0.026171122
35	0x3abb60dd	0.0014295835
36	0xbd23c6c5	-0.039984483
37	0x3a7764a5	0.00094372994
38	0x3b338bda	0.002739659
39	0x3cad2513	0.021135842
40	0x3cdf7bb4	0.027280666
41	0xbd0e7c26	-0.034786366
42	0xbcddef7a	-0.02709173
43	0xbd07de36	-0.0331709
44	0xbd163295	-0.036669333
45	0x3c96f05d	0.018425161
46	0x3cdfcb53	0.027318632
47	0x3cd35369	0.025796609
48	0xbd06e27b	-0.032930832
49	0x3c615d1d	0.01375511
50	0xbcc4e62d	-0.024035538
51	0x3a1388c1	0.0005627983
52	0xbd224710	-0.03961855
53	0x3c5c99d0	0.013464406
54	0xbc83d19d	-0.016091162
55	0xbcca9396	-0.024728578
56	0xbd2457e5	-0.040122885
57	0x3c8548f6	0.016270142
58	0x3b51a63c	0.0031989953
59	0x3b8d7998	0.0043174736
60	0xbcab3ab4	-0.020902015
61	0xbcb99f24	-0.022658892
62	0x3cb012f1	0.021493407
63	0x3d0205a4	0.03174366
64	0x3cfc7c9b	0.030821135
65	0xbcd83b8e	-0.026395585
66	0x3ce53f6a	0.02798434
67	0xbc42c568	-0.011887886
68	0xbc0e0041	-0.008667053
69	0x3ccd8664	0.025088497
70	0x3d10571c	0.035239324
71	0xbc02f9ec	-0.007994156
72	0x3cb1bfef	0.021697966
73	0xbd36f6fe	-0.044669144
74	0xbc7a07f5	-0.015260686
75	0xbce2661e	-0.027636584
76	0xbd01f2ed	-0.031725813
77	0xbcc62036	-0.024185281
78	0xbce1334a	-0.027490277
79	0x3ccd1731	0.025035473
80	0x3cdf4e6c	0.027259074
81	0x3c802b73	0.015645718
82	0xbd110fa9	-0.035415325
83	0x3d118847	0.035530355
84	0xbd210685	-0.039312858
85	0x3b2074d3	0.0024483695
86	0xbbae4b52	-0.0053190375
87	0xbc5fb460	-0.013653845
88	0xbc8a8c7f	-0.016912697
89	0xbca7afdb	-0.020469597
90	0x3d1c55ce	0.038167767
91	0x3cd7521f	0.026284276
92	0xbb9b460b	-0.0047385744
93	0xbbaaaa09	-0.005208258
94	0x3cd83a7c	0.026395075
95	0xbc88361e	-0.016627368
96	0x3b47faf2	0.0030514565
97	0xbd2cb927	-0.042168763
98	0xbd1648a1	-0.036690358
99	0x3c344eff	0.011005162
100	0xbb75c215	-0.0037499715
101	0x3bf2b09a	0.0074063065
102	0xbcf47880	-0.029842615
103	0xbbdc0460	-0.0067143887
104	0x3c91d6d4	0.017802633
105	0x3cdd78f3	0.027035212
106	0x3d06a69b	0.03287373
107	0x3bcd2dd5	0.006261567
108	0xbd02d44e	-0.03194075
109	0x3d03a664	0.032141104
110	0x3b873fdc	0.0041274857
111	0xbc2b1240	-0.010441363
112	0xbcbcc31a	-0.02304225
113	0xbcff2c97	-0.031149192
114	0xbcfcba60	-0.03085059
115	0xbc24b224	-0.010052238
116	0x3ca6e6c1	0.020373704
117	0x3c81dbf7	0.015851958
118	0xbd118283	-0.035524856
119	0xbcf1c813	-0.029514348
120	0xbbe9c5ea	-0.007134189
121	0xbd2521cb	-0.04031543
122	0x3c2bfc1c	0.010497119
123	0x3b9da43f	0.0048108394
124	0x3cd57695	0.02605752
125	0xbc5ed081	-0.013599516
126	0xbd11c0f9	-0.035584424
127	0xbc3c7fe6	-0.011505103
128	0x3d06d038	0.032913417
129	0xbc0f1196	-0.00873222
130	0xbd306efa	-0.043074585
131	0x3c153620	0.009107143
132	0xbd11b84a	-0.035576142
133	0x3c4d171d	0.012517718
134	0x3bf3d08c	0.007440632
135	0xbb6b51f6	-0.0035907007
136	0xbd36cbfd	-0.044628132
137	0xbd22f788	-0.039786845
138	0x39e4b03d	0.00043618857
139	0xbc551f03	-0.013007882
140	0xbcea7cde	-0.028623994
141	0xbcfd3911	-0.030911
142	0x3b51dabe	0.003202125
143	0xbd0616ee	-0.03273671
144	0xbc8ff5ac	-0.0175732
145	0x39d6c063	0.000409606
146	0xbd206267	-0.039156344
147	0xbd25986d	-0.040428568
148	0x3c359025	0.01108173
149	0xbca6e192	-0.020371232
150	0x3cd1517c	0.02555155
151	0x3b3d8f78	0.0028924625
152	0x3c63eabc	0.0139109455
153	0x3ccf7f51	0.025329264
154	0x3cbe95c9	0.023264783
155	0x3cc54e55	0.024085203
156	0xbd1b7091	-0.03794915
157	0x3b79f0ca	0.0038137906
158	0x3cba6a63	0.022755807
159	0x3ccdffe5	0.025146434
160	0x3d0f0431	0.034916107
161	0x3d2014c5	0.039082307
162	0x3a81b2ad	0.0009895168
163	0xbcd5e319	-0.026109265
164	0xbb214f83	-0.0024614043
165	0xbd1d424c	-0.038393304
166	0x3ca4fa54	0.020138897
167	0x3c5e2a2f	0.013559862
168	0xbb3710b2	-0.0027933535
169	0xbbe69f27	-0.0070380154
170	0x3cd81f85	0.026382217
171	0x3d372a3d	0.044718016
172	0x3bbf2649	0.0058334214
173	0xbd0e4969	-0.034737978
174	0xbd1745c8	-0.036931783
175	0x3cbbd470	0.022928447
176	0xbc0970c4	-0.008388702
177	0xbc759992	-0.014990227
178	0x3c5f6195	0.013634105
179	0xbd05bb07	-0.032649066
180	0xbd4317a0	-0.047629952
181	0x3cb0fa75	0.021603802
182	0xbab38c7b	-0.0013698483
183	0xbd20139b	-0.039081197
184	0xbb26f8f6	-0.0025477982
185	0xbcf3ef53	-0.029777205
186	0x3c42d500	0.0118916035
187	0xbc899f7c	-0.01679968
188	0xbcefb423	-0.0292607
189	0xbcc6627f	-0.024216888
190	0xbc467afd	-0.012114284
191	0xbabf382d	-0.0014588885
192	0xbd00872b	-0.031378906
193	0x3c823564	0.0158946
194	0xbd2c3c63	-0.042049777
195	0x3d0165ca	0.031591214
196	0x3d1eb77b	0.0387492
197	0xbd1571f6	-0.036485635
198	0xbd2b4190	-0.041810572
199	0xbd26d92c	-0.040734455
200	0x3b6ebc84	0.0036428282
201	0x3cff8ac0	0.03119409
202	0x3cf8a3ee	0.030351605
203	0xbd1a6cac	-0.037701294
204	0xbc7fd71d	-0.015615252
205	0xbaf5f559	-0.0018765136
206	0xbd130c51	-0.035900418
207	0x3cdd4989	0.027012603
208	0xbd27fced	-0.041012693
209	0xbcf0f11b	-0.029411843
210	0xbd30dfc6	-0.043182157
211	0xbd02f468	-0.031971365
212	0x3b605bed	0.003423448
213	0x3bc4cc61	0.006005809
214	0x3c8c7506	0.017145645
215	0xbc627bb2	-0.013823437
216	0xbd1c3cd7	-0.03814396
217	0x39d66a32	0.00040896382
218	0xba88d936	-0.001044071
219	0x3b5439da	0.0032383115
220	0xbc9012f7	-0.017587168
221	0xbc3ee06e	-0.011650188
222	0xbbff690a	-0.007794504
223	0xbc8b435a	-0.01699989
224	0x3cf7b64f	0.030238299
225	0x3cff9c8d	0.031202579
226	0xbb68d05c	-0.0035524582
227	0x3c3a0078	0.011352651
228	0x3c5cd806	0.013479238
229	0x3d12dd28	0.035855442
230	0xbc9912b3	-0.018685674
231	0x3c063082	0.008190276
232	0x3a3b3d6b	0.0007142636
233	0x3cc52dce	0.024069693
234	0xbcf2bc0a	-0.02963068
235	0x3b87ff7d	0.0041503296
236	0x3c3c8145	0.01150543
237	0xbbe27d36	-0.006911899
238	0x3ce5376f	0.027980534
239	0xbd234ddf	-0.039869186
240	0x3c52c4a6	0.012864267
241	0x3bbf4b91	0.0058378656
242	0x3c17425e	0.009232132
243	0xba0df988	-0.0005415906
244	0x3c99e302	0.018785004
245	0xbcca000a	-0.024658222
246	0x3b85ac59	0.0040793833
247	0x3c97e9c4	0.018544085
248	0x3cc39040	0.023872495
249	0x3ab5e97d	0.0013878789
250	0x3c8c854c	0.017153405
251	0x3cf14f19	0.029456662
252	0x3d0b7de0	0.03405559
253	0xbd315322	-0.043292172
254	0x3b889080	0.0041676164
255	0xbd0adc46	-0.033901475

encoder.2.bias f4 [64]
0	0xbc79745b	-0.015225495
1	0x3c6830a7	0.014171756
2	0xbca2d1e4	-0.019875474
3	0xbd2c964d	-0.042135525
4	0xbcb08b03	-0.021550661
5	0x3d03b5b5	0.03215571
6	0x3c9b240f	0.018938093
7	0x3d24d422	0.040241368
8	0xbc410b65	-0.011782502
9	0xbd365385	-0.044513244
10	0x3ccb0697	0.024783416
11	0x3cc1d31c	0.023660235
12	0xbcc5e489	-0.024156826
13	0xbcf0aa1e	-0.029377993
14	0x3cbd2d23	0.023092812
15	0x3bc60564	0.006043123
16	0x3cd12519	0.025530385
17	0x3c82db14	0.015973605
18	0xbbfb6980	-0.0076724887
19	0xbb0f84bd	-0.0021899187
20	0x3b713112	0.003680293
21	0xbc66cf0f	-0.014087453
22	0xbce85226	-0.028359484
23	0x3c2108df	0.009828775
24	0xbaf4bef3	-0.001867263
25	0xbb1ec07a	-0.0024223612
26	0xbc61e1d9	-0.013786756
27	0xbcc4b74e	-0.024013188
28	0xbcd27894	-0.025692262
29	0x3d0d33e2	0.034473307
30	0xbd0f3eac	-0.034971878
31	0xbcb33592	-0.02187613
32	0xbc4841ee	-0.01222275
33	0xbc4ee225	-0.012627159
34	0xbc869385	-0.016427765
35	0x3ceaae6a	0.02864762
36	0xbc29e5b2	-0.010369705
37	0x3d349d3a	0.044095255
38	0x3c6a20d7	0.014290056
39	0x3aff2d3f	0.001946844
40	0x3cc2ad8c	0.023764394
41	0x3c93fdfe	0.018065449
42	0x3a34e392	0.00069003657
43	0xbcd14991	-0.025547775
44	0xbbe7c483	-0.0070729866
45	0xbcf9198f	-0.030407695
46	0x3d023f06	0.031798385
47	0xbbf844a4	-0.007576542
48	0xbc90a96b	-0.01765891
49	0x3d0de922	0.03464616
50	0x3cd1c391	0.025605949
51	0xbd33943d	-0.043842543
52	0x3cda2daf	0.026633112
53	0x3cf72b55	0.03017203
54	0x3cfc35bf	0.030787347
55	0xbcfd5a4f	-0.030926852
56	0x3d05eec5	0.03269841
57	0x3cd71c24	0.026258536
58	0x3d055d41	0.032559637
59	0xbd3f8fc3	-0.04676796
60	0x3d18e7be	0.03733038
61	0xbcd351ac	-0.02579578
62	0xbcedd060	-0.029030025
63	0xbb33a3cb	-0.002741086

middle.0.weight f4 [64, 64, 3, 3]
0	0x3c24580e	0.0100307595
1	0xbd200e61	-0.039076213
2	0xbcf1d0ae	-0.029518452
3	0x3c9ddf34	0.01927147
4	0x3b023979	0.0019870682
5	0xbd132722	-0.03592599
6	0x3c5cafd9	0.01346966
7	0x3c96f4c1	0.018427255
8	0x3c923b7f	0.017850636
9	0x3c8fd068	0.01755543
10	0x3c9254c9	0.017862694
11	0x3c8f6625	0.017504761
12	0x3cfcd887	0.030864967
13	0x3cecc298	0.028901383
14	0xbcb6db45	-0.022321353
15	0xbc83608e	-0.016037252
16	0x3b98cdc0	0.004663199
17	0x3d220e1f	0.03956425
18	0xbd17058b	-0.03687052
19	0xbc98a14c	-0.0186316
20	0x3d123ad7	0.035700645
21	0xbd26ded8	-0.040739864
22	0x3ccd8975	0.025089959
23	0xbc61cb9a	-0.013781453
24	0xbd25b320	-0.04045403
25	0xbbe922fd	-0.0071147666
26	0xbcdabd4c	-0.026701592
27	0xbc025ca2	-0.007956656
28	0x3c82fb32	0.01598892
29	0xb90a8853	-0.0001321149
30	0x3d1f2b7b	0.038859826
31	0x3d205ef0	0.03915304
32	0xbc1a187d	-0.0094052525
33	0xbca55cf3	-0.020185923
34	0x3d18b9c7	0.037286546
35	0x3b9d3fce	0.004798866
36	0x3c43f617	0.011960528
37	0xbc999b95	-0.018750945
38	0xbd097bb6	-0.033565246
39	0xbc009c1c	-0.007849719
40	0xbbb2c500	-0.005455613
41	0xbcbd95fa	-0.023142803
42	0x3c92e638	0.017932042
43	0x3d114535	0.03546639
44	0xbd366b5a	-0.044535972
45	0x3cfde6c3	0.030993825
46	0x3c322b43	0.010874572
47	0xbcc0d49a	-0.023538876
48	0x3cfc6625	0.030810425
49	0x3d10a6aa	0.035315193
50	0xbb0ae007	-0.002119066
51	0x3cd04055	0.0254213
52	0x3ccf79c6	0.02532662
53	0xbb47777f	-0.0030436215
54	0x3cf92515	0.03041319
55	0x3c81d0d3	0.015846645
56	0x3d07e682	0.033178814
57	0x3d0eaa14	0.034830168
58	0x3d25ae38	0.04044935
59	0x3cfc9a98	0.030835435
60	0x3c978870	0.018497676
61	0x3ced553a	0.028971303
62	0x3ce8ae42	0.028403405
63	0xbb81f270	-0.0039656684
64	0x3c1362c1	0.008995713
65	0xbd1d8ff1	-0.03846735
66	0xbc612957	-0.013742766
67	0xbc8dc140	-0.017304063
68	0x3c8308b3	0.015995359
69	0x3ced3b5e	0.028958973
70	0xbcecbcac	-0.02889856
71	0xbc6d4c83	-0.014483574
72	0x3cf0e5d7	0.029406471
73	0xbbf7c7a6	-0.0075616417
74	0xbc08bd9c	-0.008345988
75	0xba5a6b62	-0.00083320413
76	0xbcd9a133	-0.026566124
77	0x3d0395ac	0.03212516
78	0xbb7fa3d3	-0.003900756
79	0x3cbf2917	0.023335023
80	0xbcb6e695	-0.022326747
81	0xbbb34aad	-0.0054715485
82	0x3d145df1	0.036222402
83	0xbcd46588	-0.02592732
84	0x3cf26ec0	0.029593825
85	0xbcb43551	-0.02199808
86	0xbc35d195	-0.0110973315
87	0xbc8a13dc	-0.016855173
88	0xbb1f38b1	-0.0024295265
89	0xbceeffce	-0.029174712
90	0xbcba9221	-0.022774758
91	0x3b85afcc	0.0040797945
92	0xbd3fc2ff	-0.046816822
93	0x3c64cf85	0.013965492
94	0x3d2ceb85	0.042216796
95	0x3cd5e799	0.02611141
96	0x3c8b5868	0.017009929
97	0x3cd5e294	0.026109017
98	0xbd095ff2	-0.033538766
99	0x3bf2c6a9	0.007408936
100	0x3cfb322e	0.030663576
101	0x3c8a6668	0.016894534
102	0x3d202ebc	0.03910707
103	0x3b9ed402	0.0048470506
104	0xbc6ba8d3	-0.014383513
105	0x3cc15cf5	0.023603896
106	0x3cb7307c	0.022361986
107	0xbc499199	-0.01230278
108	0xbd422b70	-0.047404706
109	0xbcc29af0	-0.02375552
110	0x3d04fab0	0.032465637
111	0xbcb9edcd	-0.0226964
112	0x3c28d6b1	0.010305093
113	0x3c833627	0.016017033
114	0xbcfefecb	-0.031127354
115	0xbd3cdb29	-0.046107445
116	0xbcbf8f67	-0.02338381
117	0x3cd8879a	0.026431847
118	0x3b3e6a6c	0.0029055132
119	0x3c9038ff	0.017605303
120	0x3cefa563	0.029253667
121	0x3b8d15c3	0.0043055727
122	0xbc7765fd	-0.0150999995
123	0x3d134047	0.03594997
124	0x3ce25325	0.027627537
125	0xbcd6022e	-0.026124086
126	0xbd1a9c17	-0.037746515
127	0xbcf93273	-0.030419564
128	0x3cb5683c	0.02214443
129	0x3d1b9c77	0.037991013
130	0x3ae42561	0.0017406159
131	0x3cef5c05	0.029218683
132	0x3d27b012	0.040939398
133	0x3c30a3dc	0.010781255
134	0xbc690561	-0.014222474
135	0x3c976feb	0.018485984
136	0xbcc76719	-0.024341153
137	0xbd1a2d47	-0.037640836
138	0xbd0f1d22	-0.034939893
139	0xbb273dc4	-0.0025518993
140	0x3d21a16e	0.039460592
141	0x3d101c3b	0.035183173
142	0xbd291c66	-0.04128685
143	0x3d1a96b9	0.037741397
144	0xbc556e66	-0.013026809
145	0xbc4e054a	-0.012574503
146	0x3d1eb042	0.03874231
147	0x3b252fd8	0.002520552
148	0xbcc34f44	-0.023841508
149	0xbc3d0b17	-0.011538289
150	0xba3571de	-0.00069215696
151	0x3c5a1087	0.0133096045
152	0x3d14826a	0.036257185
153	0xbc4c0a92	-0.012453692
154	0x3c056732	0.008142279
155	0x3c42677a	0.011865491
156	0x3cf6a8e1	0.030109825
157	0xbcbb9cf3	-0.022901988
158	0x3c7b6550	0.015343979
159	0x3c9e0551	0.019289644
160	0xbd0fc0dc	-0.035096034
161	0xbccc0713	-0.024905717
162	0xbb870220	-0.0041201264
163	0xbd0f6169	-0.035005007
164	0xbbef3092	-0.007299491
165	0x3cfe22e0	0.03102249
166	0x3c0efa0a	0.008726606
167	0xbd0a7688	-0.033804446
168	0x3c9f5dd4	0.01945392
169	0x3cd0a68c	0.02547004
170	0xbc7162c7	-0.014733023
171	0xbd06ae63	-0.032881152
172	0xbcc974cf	-0.024591831
173	0x3c87e1c7	0.016587151
174	0x3d2397c0	0.039939642
175	0x3c197562	0.009366365
176	0xbc8d8623	-0.017275875
177	0xbc66f23c	-0.014095839
178	0xbc9e3bc4	-0.019315608
179	0x3c8c83c6	0.017152678
180	0xbc9e3c5a	-0.019315887
181	0xbcce2041	-0.025161864
182	0x3d1f23f7	0.038852658
183	0xbb7d9ab1	-0.003869694
184	0xbc84acf9	-0.016195761
185	0xbbf50534	-0.007477427
186	0xbccf8d80	-0.025336027
187	0xbc5d3ad1	-0.013502792
188	0xbd11318d	-0.035447646
189	0xbb407ec0	-0.0029372424
190	0xbd0bd565	-0.034139056
191	0x3bac5012	0.0052585686
192	0x3d21eada	0.039530613
193	0x3d1b77f4	0.037956193
194	0xbc6804f4	-0.014161337
195	0x3be91b08	0.007113818
196	0xbd2cc92d	-0.042184044
197	0x3b0603ac	0.0020448966
198	0xba9e04b0	-0.001205584
199	0xbcdac47b	-0.026705017
200	0xbc8c0ce5	-0.017095992
201	0xbba053e9	-0.0048928154
202	0xbcc9a9ba	-0.024617065
203	0x3cc87e2c	0.024474226
204	0x3c355641	0.011067928
205	0xbd0beed4	-0.03416331
206	0xbd2b7d47	-0.04186752
207	0xbc4cad81	-0.012492538
208	0x3c266561	0.010156007
209	0xbd27e16b	-0.04098646
210	0xbcb98468	-0.022646144
211	0xbc7e8f80	-0.015537143
212	0x3cdd7630	0.027033895
213	0xbbe9a8e3	-0.0071307286
214	0x3ca4ac91	0.020101817
215	0xbc78c539	-0.01518374
216	0x3cdb1186	0.026741754
217	0x3be7b187	0.0070707235
218	0xbd0562a7	-0.032564785
219	0x3d1d83e5	0.038455863
220	0xbd163e41	-0.036680464
221	0xbd1e04e6	-0.03857889
222	0x3c9eaaf5	0.019368628
223	0x3c2482cb	0.010040949
224	0xbce79d00	-0.028273106
225	0xbcd4f75d	-0.025996858
226	0xbbfc547a	-0.0077005
227	0xbbbafbe6	-0.005706298
228	0xbb3bcc70	-0.002865579
229	0xbd0bec25	-0.03416075
230	0x3cb87aa4	0.022519417
231	0xbc257c16	-0.010100385
232	0x3cdf0b5c	0.027227096
233	0xbd1e7109	-0.038682017
234	0x3c8c692f	0.01714
235	0xbc9f10d1	-0.019417198
236	0xbd060045	-0.0327151
237	0x3d0983a8	0.033572823
238	0x3c9532f3	0.018212771
239	0x3c07f4ce	0.008298112
240	0x3c9538b6	0.018215518
241	0x3cb4b11f	0.022057114
242	0x3cdd12d0	0.02698651
243	0x3d286b8f	0.0411182
244	0xbcad330a	-0.021142501
245	0x3be341de	0.006935342
246	0xbc851763	-0.016246503
247	0xbc047102	-0.008083584
248	0x3b7408fa	0.0037236796
249	0xbcbc730a	-0.023004074
250	0xbb5f376f	-0.003406014
251	0x3cee46f8	0.029086575
252	0xb9c4375a	-0.00037425273
253	0xbc7e73f5	-0.015530576
254	0xbb2ab729	-0.0026049113
255	0x3b5bfb9e	0.0033566724

middle.0.bias f4 [64]
0	0xbb479199	-0.0030451773
1	0x3d254ce7	0.040356543
2	0x3c976ab2	0.018483493
3	0x3c5b9453	0.0134020625
4	0x3c88dd22	0.016707007
5	0xbd20e728	-0.039282948
6	0x3bd803be	0.006592243
7	0x3cf3390d	0.02969029
8	0x3d1fdada	0.039027072
9	0xbd0a9ffb	-0.033843976
10	0x3c9919c1	0.018689038
11	0x3cebfae3	0.028806156
12	0x3d248d3a	0.040173747
13	0x3cc6cc97	0.024267478
14	0x3c5d0160	0.013489097
15	0x3cfb3c85	0.030668506
16	0x3bccd333	0.006250763
17	0x3ca44e1e	0.02005678
18	0x3c3b62a3	0.011437091
19	0x3c68fb93	0.014220136
20	0xbd07a4c9	-0.033116136
21	0xbd18a465	-0.037266154
22	0x3ca530d3	0.020164883
23	0x3d36b8db	0.044609886
24	0xbd14e7d7	-0.036353912
25	0xbb111382	-0.0022136872
26	0xbd13ee91	-0.036116187
27	0x3ca4944b	0.020090243
28	0x3b58293d	0.0032983564
29	0x3ba9e992	0.0051853145
30	0xbbfa9f65	-0.007648396
31	0x3b1b48f5	0.0023694609
32	0x3ccf23c5	0.02528561
33	0xbcf76fd7	-0.030204697
34	0x3d131830	0.03591174
35	0x3d1163f5	0.035495717
36	0xbd36bb40	-0.04461217
37	0x3d2fa280	0.04287958
38	0x3cf3f9ce	0.029782202
39	0xbbdcec6e	-0.006742052
40	0x3b3290b9	0.0027246906
41	0xbc97f7e6	-0.018550824
42	0x3c8278e9	0.015926795
43	0xbc90cc06	-0.017675411
44	0xbccfc291	-0.025361331
45	0xbcfbcdc9	-0.030737774
46	0x3c82f717	0.015986962
47	0xbc4f9156	-0.012668928
48	0xbcb2a291	-0.021806033
49	0xbd3e4315	-0.046450693
50	0x3cb5cf58	0.022193596
51	0x3d3d6eb2	0.046248145
52	0xbb9fdd97	-0.0048787105
53	0xbc1c6922	-0.00954655
54	0xbcfe7c28	-0.031065062
55	0x3be86394	0.0070919488
56	0x3ae69d35	0.0017594459
57	0x3cd05893	0.02543286
58	0x3c226c51	0.00991352
59	0xba6ce584	-0.0009036886
60	0x3b6d6e58	0.00362291
61	0xbbe93237	-0.007116582
62	0xba1e1f1b	-0.0006031857
63	0xbcf8f33f	-0.030389426

middle.2.weight f4 [64, 64, 3, 3]
0	0xbc75695a	-0.014978731
1	0x3c0d9716	0.008641979
2	0xbc9d9b1c	-0.019239001
3	0x3cde70d1	0.027153404
4	0xbd2184d5	-0.03943332
5	0x3cbbf447	0.022943629
6	0xbd22b7ca	-0.039726056
7	0x3d0a4b46	0.033763193
8	0xbc8fd082	-0.017555479
9	0x3c2b55b0	0.010457441
10	0xbc8884dc	-0.016664915
11	0x3c9d3d8e	0.01919439
12	0x3c89c7bb	0.016818872
13	0x3cde9dd6	0.027174871
14	0x3c5a65d0	0.013329938
15	0xbcf1a3ce	-0.029497053
16	0xbc8021b1	-0.015641065
17	0x3c6b02be	0.0143439155
18	0x3c7dfc51	0.015502051
19	0x3ccc0ee5	0.024909446
20	0xbd1d9311	-0.03847033
21	0xbcace130	-0.021103472
22	0x3c801228	0.015633658
23	0x3c3c763b	0.011502798
24	0x3ca09932	0.0196043
25	0x3ca4cf70	0.020118445
26	0x3b509b2d	0.0031830773
27	0x3c87debe	0.016585704
28	0x3cd87242	0.02642167
29	0xb9bb7c29	-0.00035759926
30	0xbcae2dd5	-0.021262089
31	0x3cb3d664	0.021952815
32	0xbbd7833e	-0.0065769246
33	0xbc3f5b76	-0.011679521
34	0xbc0fc816	-0.008775732
35	0x3caa32c3	0.020776158
36	0xbc6e50a1	-0.014545591
37	0xbcbd8d1e	-0.023138579
38	0x3cea42be	0.028596278
39	0xbcd3c17e	-0.0258491
40	0xbcede220	-0.029038489
41	0x3d2153e5	0.03938665
42	0xbcce5e39	-0.025191413
43	0x3bdbf31c	0.0067123305
44	0xbc064490	-0.0081950575
45	0xbc633f04	-0.013870005
46	0x3d086d39	0.033307288
47	0xbb6d1fdc	-0.003618232
48	0x3d2921e8	0.0412921
49	0xbc411646	-0.011785096
50	0xbcbceae0	-0.023061216
51	0x3d340775	0.043952424
52	0x3d0389d2	0.032113858
53	0xbd15c603	-0.03656579
54	0xbcc2c223	-0.023774212
55	0xbc0d4500	-0.008622408
56	0xbc4638cf	-0.012098505
57	0x3d1e4cbe	0.038647406
58	0x3cae0ca2	0.021246258
59	0xbc1a0809	-0.00940133
60	0xbc9a4c94	-0.018835343
61	0x3d1d5ac2	0.03841663
62	0x3bc54f03	0.006021382
63	0x3cd8c6ac	0.026461922
64	0xbcf2ec5d	-0.029653722
65	0xbd3472d6	-0.04405483
66	0x3cb931be	0.022606727
67	0xbcffb7c3	-0.031215554
68	0xbcfabe3f	-0.030608295
69	0x3cb9c0c8	0.022674933
70	0xbd16f741	-0.036856893
71	0xbcd5d3f1	-0.026102038
72	0x3b91add8	0.0044457726
73	0xbce4a0a5	-0.027908633
74	0x3d1ac608	0.037786514
75	0x3b418cb6	0.0029533333
76	0x3c57bcfb	0.013167615
77	0x3c419f45	0.011817758
78	0xbc652d61	-0.01398787
79	0x3a15d134	0.00057150726
80	0x3ae5620c	0.0017500534
81	0x3c102be8	0.008799531
82	0xbc9b9fb4	-0.01899705
83	0xbc894f62	-0.016761485
84	0x3d233776	0.039847814
85	0x3b86ee22	0.004117743
86	0xbc5be923	-0.013422283
87	0xbc8a2ccb	-0.016867062
88	0xbb006154	-0.0019589262
89	0x3cfa5d5f	0.030562101
90	0xbd0373ea	-0.032092966
91	0xbc0bb2d3	-0.008526522
92	0xbc899096	-0.016792577
93	0xbcfaf50a	-0.030634422
94	0xbd08a53f	-0.033360716
95	0x3c24a890	0.010049954
96	0xbce3064b	-0.027712962
97	0xbbad6718	-0.0052918307
98	0xbd07819a	-0.033082582
99	0x3d12e60f	0.035863932
100	0x3bb805ac	0.0056159105
101	0xbcf87484	-0.030328996
102	0xbcb42a95	-0.021992961
103	0x3d103006	0.03520205
104	0x3c83cca8	0.016088799
105	0xbc8adb0a	-0.01695015
106	0x3c870451	0.01648155
107	0xbb9cbbea	-0.0047831433
108	0xbabf1c43	-0.0014580566
109	0xbbfa3976	-0.0076362444
110	0xbc6c37db	-0.014417614
111	0xbd11cb27	-0.03559413
112	0x3c886411	0.016649278
113	0x3ca1bb62	0.019742671
114	0x3ac46420	0.0014983453
115	0xbd026f92	-0.031844683
116	0xbcef43a9	-0.029207068
117	0xbc914645	-0.017733702
118	0x3c85f657	0.016352816
119	0xbb463a40	-0.0030247122
120	0xbc3f21cf	-0.011665775
121	0xbb21f2bf	-0.0024711338
122	0x3ce68859	0.028141188
123	0x3c330e5d	0.010928717
124	0xbb91539e	-0.004435017
125	0x3bfd0b3a	0.0077222856
126	0x3b00524d	0.0019580305
127	0xbc40b806	-0.011762625
128	0x3cc3fa99	0.023923205
129	0x3c958a09	0.018254297
130	0xbc036c14	-0.008021373
131	0x3b315119	0.0027056395
132	0x3b067511	0.0020516554
133	0xbbacb57a	-0.005270657
134	0x3c00c372	0.007859098
135	0x3c1feb50	0.009760693
136	0xbcd592d8	-0.026070997
137	0x3ca8872d	0.02057227
138	0x3cc4f38a	0.02404191
139	0x3cf81a25	0.030285904
140	0xbcd63195	-0.02614669
141	0xbd0b5867	-0.034019854
142	0x3cba6dd4	0.022757448
143	0xbcf858da	-0.030315805
144	0xbcf32a60	-0.029683292
145	0x3d060a9c	0.03272496
146	0x3c941c5c	0.018079929
147	0x3c3a33ea	0.011364916
148	0x3d27a043	0.04092432
149	0xbcae27d1	-0.02125922
150	0xbbf3ebb4	-0.0074438695
151	0xbd1bb9a0	-0.038018823
152	0x3c49ba26	0.012312448
153	0x3cd61e0c	0.026137374
154	0x3c61f76f	0.013791903
155	0x3d3bf509	0.04588798
156	0x3d205ab0	0.039148986
157	0xbcec2f68	-0.028831199
158	0xbd0a7f53	-0.033812832
159	0xbc20567b	-0.009786244
160	0x3d2f8eac	0.042860672
161	0x3d02bff2	0.031921335
162	0xbcec4e90	-0.028846055
163	0x3b9c5397	0.004770707
164	0xbc979be5	-0.018506953
165	0xbcfd5067	-0.030922128
166	0x3cce575c	0.02518814
167	0x3c275ae4	0.010214541
168	0xbaf77736	-0.0018880132
169	0x3ce3302f	0.027732937
170	0xbd003e3e	-0.03130936
171	0xbd32f4c7	-0.04369047
172	0xbc10cad6	-0.008837422
173	0xbd179f20	-0.037016988
174	0xbd10b008	-0.035324126
175	0x3b833a81	0.004004777
176	0xbc5ddb5a	-0.013541067
177	0xbc45ae00	-0.012065411
178	0x3d15241d	0.036411393
179	0x3cf6bfab	0.030120691
180	0xbc48ea05	-0.012262826
181	0x3cf4072c	0.029788576
182	0x3cc3e10e	0.023911025
183	0x3d3fdd99	0.04684219
184	0x3d35d03b	0.044388037
185	0xb6e02399	-6.6798643e-06
186	0x3d1d1025	0.038345475
187	0xbc515ddb	-0.012778725
188	0xbd0d8776	-0.034553014
189	0xbc88e2e0	-0.016709745
190	0xbc18cdc1	-0.009326399
191	0xbc9def1b	-0.019279053
192	0xbcd66ab6	-0.02617393
193	0x3d0b8a34	0.034067348
194	0xbc39aa8d	-0.011332166
195	0x3cbad972	0.022808764
196	0xbd1936c0	-0.03740573
197	0x3d1fc9d5	0.03901084
198	0x3cb831a8	0.022484615
199	0xbd0f9d84	-0.035062328
200	0xbd1655ce	-0.036702923
201	0x3c9d8693	0.019229209
202	0x3cb9d4c8	0.02268447
203	0xbc4c46e1	-0.012468071
204	0x3d29b223	0.04142965
205	0xbb97f2ad	-0.0046370835
206	0x3d0202bc	0.03174089
207	0xbce50d4d	-0.027960444
208	0x3ca59132	0.020210836
209	0xbd21052b	-0.03931157
210	0xbcc9f94d	-0.024655009
211	0xbcbf0f38	-0.023322687
212	0xbce0c1d4	-0.027436174
213	0x3c160996	0.009157559
214	0x3ca78d11	0.020453008
215	0x3b5d85fd	0.0033801787
216	0xbb5e7b51	-0.0033948014
217	0x3a10b4be	0.0005520097
218	0xbc38b336	-0.011273196
219	0x3d09436b	0.03351156
220	0x3cf778e1	0.030209007
221	0xbcc4395b	-0.02395313
222	0xbd05a5a5	-0.032628674
223	0x3c745e3e	0.014915047
224	0x3d0c04db	0.034184318
225	0x3cc73876	0.024318915
226	0x3c09fecd	0.008422566
227	0x3c3e4be1	0.011614771
228	0x3b7b1ed4	0.0038317936
229	0xbb3d79a4	-0.0028911615
230	0x3d086ad8	0.03330502
231	0x3c7d8994	0.015474696
232	0xba8239e0	-0.0009935461
233	0x3d2d37b5	0.042289454
234	0x3d125b0d	0.035731364
235	0xbcad6e26	-0.021170687
236	0x3d2af750	0.04173976
237	0x3c417772	0.011808263
238	0x3d1af632	0.037832446
239	0x3ca53136	0.020165067
240	0xbcfe222a	-0.03102215
241	0xbcbf6815	-0.02336506
242	0x3cd7d6a0	0.026347458
243	0x3c6babe5	0.014384245
244	0xbd3c65c8	-0.045995504
245	0xbd05b891	-0.03264672
246	0xbc804d0b	-0.015661737
247	0x3c737c40	0.0148611665
248	0xbd215d73	-0.03939576
249	0x3d1c1c50	0.03811294
250	0x3d1cf1a5	0.038316388
251	0x3d00a5c3	0.031408083
252	0x3ce0f08d	0.027458454
253	0x3ce39367	0.027780248
254	0x3d2873bb	0.041125994
255	0xbd0c2ebe	-0.034224264

middle.2.bias f4 [64]
0	0x3c210126	0.009826934
1	0xbcd64105	-0.02615405
2	0xbd0e1cb9	-0.03469536
3	0x3c3b65cf	0.011437847
4	0x3cba4c70	0.022741526
5	0xbce2a866	-0.02766819
6	0xbd176d0f	-0.03696924
7	0xbcc78515	-0.02435545
8	0x3d3d4545	0.04620864
9	0x3cc3906e	0.02387258
10	0x3b19ac6a	0.0023448714
11	0x3c42ba94	0.011885304
12	0xbd065b3d	-0.032801855
13	0xbc2f8ad5	-0.0107142525
14	0x3d3ead0d	0.046551753
15	0x3c863db9	0.016386854
16	0x3c5c2380	0.013436198
17	0x3cac725a	0.02105062
18	0x3cb560f8	0.022140965
19	0x3ca8f73f	0.020625709
20	0x3b5d23c2	0.0033743237
21	0xbb5fce11	-0.0034149925
22	0xbcca0839	-0.024662124
23	0xbceecdfa	-0.029150952
24	0x3c3d2fde	0.011547057
25	0xbd0e9742	-0.03481222
26	0xbcdc5230	-0.026894659
27	0x3d33270f	0.04373842
28	0x3d3c7bfa	0.04601667
29	0xba86a2ab	-0.0010271868
30	0xbc344078	-0.011001699
31	0xbc95fbda	-0.018308569
32	0x3c55c8ab	0.013048331
33	0x3ac37911	0.00149134
34	0x3ba7c10e	0.0051194495
35	0xbb812468	-0.0039411075
36	0xbc90f70e	-0.01769593
37	0xbcd5f05f	-0.026115594
38	0xbd0d321f	-0.034471627
39	0x3c387c0a	0.011260042
40	0xbd126459	-0.03574023
41	0xbb54f599	-0.003249502
42	0xbd12192c	-0.035668537
43	0x3b50569d	0.0031789907
44	0xbd10db60	-0.035365462
45	0xbc91208a	-0.017715711
46	0xbcb53371	-0.022119256
47	0x3abac2f4	0.0014248774
48	0x3d1c5e11	0.038175646
49	0x3ca747e5	0.020420024
50	0x3cd5614e	0.026047375
51	0x3cc32c2a	0.02382477
52	0x39d93de1	0.0004143557
53	0xbc882c41	-0.016622664
54	0x3d3e8d1e	0.0465213
55	0xbc01d26f	-0.007923706
56	0xbaf7ca6a	-0.0018904929
57	0x3cf46004	0.02983094
58	0xbc55d3dd	-0.013051
59	0x3cd31743	0.025767928
60	0x3d36f5f1	0.04466814
61	0x3d3e86fc	0.04651545
62	0xbd1fe1e8	-0.0390338
63	0xbc9e93ea	-0.01935764

decoder.0.weight f4 [64, 64, 3, 3]
0	0xbcd5021c	-0.026001982
1	0xbba84d24	-0.005136149
2	0x3d2a4816	0.041572653
3	0x3d3b7a00	0.045770645
4	0x3c10e1df	0.008842914
5	0x3cac64f0	0.021044225
6	0xb8a5bd79	-7.903105e-05
7	0x3c205edf	0.009788244
8	0x3c9d473e	0.01919901
9	0xbc99509e	-0.0187152
10	0x3c127fe7	0.008941627
11	0xbcf11a14	-0.02943138
12	0xbba71dfe	-0.005100011
13	0xbcac2e4b	-0.021018168
14	0xbcee5481	-0.029093029
15	0x3d13e4d9	0.036106918
16	0xbcd03986	-0.025418054
17	0xbc9044f4	-0.017611004
18	0x3cb2d40b	0.021829626
19	0xbc340a18	-0.010988735
20	0x3b672534	0.0035269978
21	0x3bea3158	0.0071469955
22	0xbcc90530	-0.024538606
23	0xbcb6b873	-0.02230475
24	0xba1ad10b	-0.00059057836
25	0xbd0220be	-0.031769507
26	0x3d1c828b	0.038210433
27	0x3a589001	0.00082612043
28	0x3d019d9e	0.031644456
29	0xbbe497ee	-0.0069761192
30	0x3cb98c65	0.022649953
31	0x39681f04	0.00022136798
32	0xbcf15961	-0.029461564
33	0x3d079bd5	0.033107597
34	0x3c04c773	0.008104193
35	0xbafdafc1	-0.0019354747
36	0xbca8c9f5	-0.020604113
37	0x3d2f75c3	0.042836916
38	0x3d1a4fbc	0.037673697
39	0x3c845649	0.016154425
40	0x3c43539c	0.0119217895
41	0xbd107897	-0.035271253
42	0x3d0dd9e1	0.034631614
43	0x3c8c305d	0.017112905
44	0x3cbcdbe4	0.02305407
45	0xbc5a6f80	-0.013332248
46	0x3d0f48e2	0.034981616
47	0x3c3c95bb	0.011510308
48	0xbc238f88	-0.009982951
49	0xbc6d659c	-0.014489558
50	0x3d0c23fc	0.034214005
51	0x3d1637ae	0.036674194
52	0x3bdb67a9	0.006695707
53	0x3d3f5a8a	0.046717204
54	0x3ccdc8c5	0.025120148
55	0x3d24a8f8	0.040200204
56	0x3c4f9fd7	0.012672386
57	0x3d0c8db1	0.034314815
58	0x3d2aafd8	0.041671604
59	0xbce87755	-0.028377214
60	0x3cb7d261	0.022439184
61	0xbd0a9662	-0.033834822
62	0xbcab1cc2	-0.020887736
63	0x3cea6fc4	0.028617747
64	0x3cecc2e1	0.02890152
65	0x3c7f7786	0.015592461
66	0x3d14089b	0.03614102
67	0x3c3d65dd	0.011559931
68	0x3d2b5bf2	0.041835733
69	0x3d2b79e2	0.041864283
70	0x3d2af06e	0.041733198
71	0xbd0561a4	-0.03256382
72	0xbd19750e	-0.037465148
73	0xbc9b711c	-0.018974833
74	0x3b666bee	0.0035159546
75	0x3ce0b668	0.027430728
76	0x3d075486	0.033039592
77	0x3d3277f7	0.04357144
78	0xbc9e173c	-0.019298188
79	0x3ca0c521	0.019625248
80	0x3c9940b1	0.018707605
81	0xbc7644ac	-0.015031021
82	0x3c8f06f5	0.017459372
83	0x3d2f49d3	0.042795014
84	0xbb19c5f6	-0.0023463941
85	0x3cf4ffb3	0.029907083
86	0x3d15e302	0.036593445
87	0xbc72d20d	-0.014820588
88	0xbcda6da1	-0.026663603
89	0x3d3adee2	0.045622714
90	0xbce2cadc	-0.027684622
91	0x3c4187c7	0.011812157
92	0x3cd47ebb	0.025939336
93	0xbbd8e5c3	-0.0066191866
94	0xbcad013d	-0.021118755
95	0x3d074e0c	0.033033416
96	0x3c9751b7	0.018471582
97	0xbcfbb5b4	-0.030726291
98	0xbd03d74b	-0.03218774
99	0xbc19cc22	-0.009387048
100	0xbb6a8b4e	-0.0035788598
101	0xbc913c36	-0.017728906
102	0x3c9ee482	0.01939607
103	0xba9666a5	-0.0011474682
104	0xbc91ae28	-0.01778324
105	0x3b17ccb8	0.0023162793
106	0x3c73b2d9	0.014874184
107	0xbba407ed	-0.0050058276
108	0xba57a6e5	-0.00082264683
109	0xbcb4ac73	-0.022054886
110	0x3a1562d9	0.00056986284
111	0x3c6d3d99	0.014480018
112	0x3d090778	0.03345439
113	0xbbb2ab75	-0.005452568
114	0xbd00bbd5	-0.03142913
115	0xbca63326	-0.020288061
116	0x3c95db18	0.018292949
117	0x3cb21fb6	0.021743637
118	0x3c6711fc	0.014103409
119	0xbcb51691	-0.022105487
120	0xbc464a88	-0.012102731
121	0x3c06f32a	0.008236686
122	0xbd072c84	-0.033001438
123	0x3cf70783	0.030154949
124	0x3cf99eb7	0.030471189
125	0x3d0cceaa	0.034376778
126	0x3d2f1648	0.04274586
127	0x3cc09415	0.023508111
128	0x3d473e9b	0.04864369
129	0x3c7a77c0	0.01528734
130	0xbcb53820	-0.022121489
131	0x3d3031ac	0.04301612
132	0xbb3ece26	-0.0029114573
133	0x3c489034	0.012241412
134	0x3c278a4c	0.010225844
135	0x3d0e7a87	0.03478482
136	0xbb458416	-0.0030138544
137	0x3c314584	0.0108197965
138	0xbcef9242	-0.029244546
139	0xbc1869a8	-0.009302534
140	0x3c0ebb7d	0.008711693
141	0xbcd0879e	-0.025455292
142	0xbd095fe1	-0.033538703
143	0xbd100f51	-0.035170857
144	0x3cbe1bf0	0.023206681
145	0x3cbf0c35	0.02332125
146	0x3d06d741	0.032920126
147	0xbc8ea936	-0.01741467
148	0xbc374d24	-0.011187825
149	0x3d2ee553	0.04269917
150	0x3c0b7bad	0.008513373
151	0x3d18c0f7	0.0372934
152	0x3c6076e9	0.013700225
153	0x3c361a16	0.011114618
154	0x3cbf00fc	0.0233159
155	0x3bd94214	0.0066301916
156	0x3ccba963	0.024861043
157	0x3cdff17b	0.027336827
158	0x3d27a6ba	0.040930487
159	0x3c25b838	0.010114722
160	0x3cda9f6c	0.026687346
161	0x3d18e931	0.037331764
162	0x3c47d427	0.012196577
163	0x3cabe574	0.020983435
164	0x3c1bcc48	0.009509154
165	0x3cec8d36	0.028875928
166	0x3d2ab727	0.041678574
167	0x3d4a54e2	0.049397357
168	0xbd083251	-0.03325111
169	0x3d0fec99	0.035137746
170	0xbc8d3c16	-0.017240565
171	0x3d0a39ca	0.03374652
172	0x3ab0b65d	0.0013482083
173	0x3d427214	0.047472075
174	0x39ce45a1	0.0003934326
175	0x3cae321b	0.021264127
176	0xbc36c36f	-0.011154993
177	0x3a67f56f	0.0008848523
178	0xbc68aec0	-0.01420182
179	0x3d0f3b2c	0.03496854
180	0xbc176bb7	-0.00924199
181	0xbb00abaf	-0.0019633581
182	0xbc753fdd	-0.0149688395
183	0xbb668080	-0.0035171807
184	0xbd07e963	-0.03318156
185	0x3d276200	0.040864944
186	0x3cc1bcab	0.023649534
187	0x3d04bcee	0.03240674
188	0xbcf0a01c	-0.029373221
189	0x3d13bc0f	0.03606802
190	0x3b25baec	0.0025288416
191	0xb9bfe6a4	-0.000366022
192	0xbd0abec2	-0.033873327
193	0x3cbb2eee	0.022849526
194	0xbd07f586	-0.033193134
195	0xbc3282fc	-0.010895487
196	0xbc803955	-0.015652338
197	0xbcd3e4ec	-0.025865994
198	0xbd0806cb	-0.033209603
199	0xbd0a8c76	-0.03382536
200	0xbd0dd33b	-0.034625273
201	0xbaa29b2a	-0.0012405862
202	0xbce30d3a	-0.027716268
203	0xbc62b958	-0.013838135
204	0xbb8d1125	-0.0043050223
205	0xbc2d04f6	-0.010560265
206	0x3d23130a	0.03981308
207	0x3d00847b	0.031376343
208	0x3ce63463	0.028101152
209	0xbcc8317b	-0.024437657
210	0x3cee41aa	0.029084045
211	0xbca3120f	-0.019906072
212	0x3be89007	0.0070972475
213	0xbcdbadde	-0.026816305
214	0x3d0f41be	0.034974806
215	0xbc99089d	-0.018680865
216	0x3c998255	0.018738905
217	0x3b7e363b	0.0038789648
218	0x3c21919b	0.009861375
219	0xbc33693d	-0.010950384
220	0x3d064a25	0.032785553
221	0x3d343977	0.044000115
222	0x3d05e7db	0.032691818
223	0x3999f6e3	0.0002936638
224	0xbca84dc2	-0.02054489
225	0xbc111e80	-0.008857369
226	0xbbb6ec00	-0.0055823326
227	0x3d179c2d	0.037014175
228	0xbd1122e0	-0.03543365
229	0x3c987c3e	0.01861393
230	0xbcd328eb	-0.025776347
231	0xbcb4632e	-0.022019949
232	0xbd2a7e3c	-0.041624293
233	0x3c90a6ca	0.017657656
234	0xbd0adc58	-0.033901542
235	0x3d239421	0.03993619
236	0x3cc93b94	0.024564542
237	0x3d2b23bc	0.041782126
238	0x3d164b5e	0.03669297
239	0xba1f4b37	-0.00060765765
240	0x3cd31aaa	0.02576955
241	0x3c25da8a	0.010122905
242	0xbbeb890f	-0.0071879695
243	0x3ccaacfc	0.024740689
244	0xbcf04ef5	-0.029334525
245	0x3d251330	0.0403015
246	0xbc967d92	-0.018370423
247	0x3c8d792b	0.017269691
248	0x3cf385ce	0.029726889
249	0x3d27fbdc	0.041011676
250	0x3d33624a	0.043794908
251	0xbc17fc4a	-0.009276459
252	0x3c31c5d4	0.010850389
253	0x3d375c34	0.044765666
254	0x3cb04537	0.02151738
255	0x3d28b2ec	0.04118626

decoder.0.bias f4 [64]
0	0xbb6331a6	-0.0034667044
1	0x3d107fb5	0.03527804
2	0x3c81edd9	0.015860485
3	0x3cf805bd	0.030276174
4	0x3c696a08	0.014246471
5	0x3d3cd574	0.046102002
6	0x3d496dd9	0.049177025
7	0xbcfdefa2	-0.030998055
8	0xbc0cb334	-0.008587647
9	0x3bb28c18	0.0054488294
10	0xbc1b601f	-0.009483366
11	0x3c8a0a2b	0.016850552
12	0x3c821850	0.015880734
13	0x3cdd7d8c	0.027037404
14	0x3d58af19	0.05290136
15	0xbd05da6f	-0.032679018
16	0x3c6bcd89	0.014392265
17	0xbcd59817	-0.026073499
18	0x3d230ef2	0.039809175
19	0xbc6dec35	-0.014521648
20	0x3b6c771a	0.0036081732
21	0x3cd19196	0.025582116
22	0xbd2631c2	-0.040574796
23	0x3cc388da	0.023868967
24	0xbcfeb601	-0.031092646
25	0xbb168fa1	-0.0022973793
26	0xbb1513a1	-0.0022747295
27	0x3d3636f4	0.044486
28	0xbd3a6d2a	-0.045514263
29	0x3cf61cdd	0.03004306
30	0xbb98624e	-0.0046503907
31	0xbd22491e	-0.03962051
32	0x3cfea8bb	0.031086316
33	0xbd32914b	-0.043595593
34	0x3d0f78f4	0.03502746
35	0x3c3b37aa	0.011426846
36	0x3d0a36f3	0.03374381
37	0x3ca47089	0.020073192
38	0x3ca8c9b8	0.020604
39	0x3d2b5e5b	0.04183803
40	0x3ccf014e	0.025269177
41	0x3c38f02d	0.011287731
42	0xbd17a52d	-0.03702276
43	0xbc91cbec	-0.017797433
44	0x3cc02d05	0.023458967
45	0xb669bedd	-3.4830803e-06
46	0xbc8b0931	-0.016972156
47	0x3c3e37cc	0.011609983
48	0x3c2fedb6	0.010737827
49	0xbc432cca	-0.011912534
50	0xbc8ce955	-0.017201105
51	0x3bc202c1	0.0059207384
52	0xbd158491	-0.03650338
53	0xbca33da2	-0.01992685
54	0x3c093e1f	0.008376627
55	0x3b75a76d	0.0037483827
56	0x3cc77c05	0.02435113
57	0x3cea48a7	0.028599096
58	0xbc747eb5	-0.014922787
59	0x3ad48ff8	0.0016217222
60	0xbd362652	-0.04447014
61	0xbca5c145	-0.02023376
62	0x3d41a4b5	0.047276217
63	0x3c33436f	0.01094137

decoder.2.weight f4 [64, 64, 3, 3]
0	0x3be32d62	0.0069329003
1	0xbd2a9f84	-0.041656032
2	0xbd1e53d0	-0.03865415
3	0x3d04da4f	0.032434758
4	0x3cb7adf0	0.022421807
5	0x3c10af67	0.008830882
6	0xbc9581ae	-0.018250313
7	0x3b8d519c	0.004312707
8	0x3c9b43fa	0.018953312
9	0xbc38de6b	-0.011283497
10	0x3cf9f5a9	0.030512648
11	0xbd30823a	-0.043092944
12	0xbcc42ed4	-0.02394811
13	0x3c46d028	0.012134589
14	0x3be136ab	0.006872972
15	0x3ceb55df	0.02872747
16	0xbcd12f7d	-0.02553534
17	0x3ca17b40	0.01971209
18	0xbd3919ae	-0.045190506
19	0x3cb5a4b5	0.022173265
20	0xbd377db9	-0.044797633
21	0xba971437	-0.001152641
22	0xbbd92b2d	-0.0066274614
23	0xbcb933d9	-0.02260773
24	0x3c6756bb	0.014119799
25	0xbd13e5c9	-0.036107812
26	0x3c9ffd6f	0.019530026
27	0x3ce50c98	0.027960107
28	0xbd27da13	-0.040979456
29	0xbd1f6c4b	-0.038921636
30	0x3cfe5d7f	0.031050442
31	0x3a6b4bd4	0.0008975838
32	0xbc08f2db	-0.0083586825
33	0xbd0359df	-0.03206813
34	0x3cd05b91	0.025434287
35	0xbc71be7a	-0.014754886
36	0xbccf8db8	-0.025336131
37	0x3cdfcd57	0.027319593
38	0xbd3cd094	-0.046097353
39	0xbc529e9b	-0.012855197
40	0xbcd520e9	-0.02601667
41	0x3c88032b	0.016603073
42	0xbc797865	-0.015226458
43	0xbd2b5e3f	-0.041837927
44	0xbd32ca61	-0.043650035
45	0x3b1be983	0.0023790307
46	0xbb5af799	-0.003341174
47	0x3bb5d7db	0.0055494136
48	0x3ab6ddb1	0.0013951567
49	0xbd15359e	-0.036428086
50	0xbd35c62c	-0.044378445
51	0x3ca8f0f4	0.020622708
52	0xbcacf28f	-0.021111755
53	0xbd082000	-0.033233643
54	0x3b1509bf	0.0022741405
55	0xbd1d124a	-0.03834752
56	0xbd1ff66e	-0.039053373
57	0xbce984eb	-0.028505763
58	0xbd2913a4	-0.041278496
59	0x3c136428	0.008996047
60	0x3cabcdc4	0.02097214
61	0x3c0de748	0.008661099
62	0x3d0c09c2	0.034188993
63	0xbd1e343c	-0.038624033
64	0x3cf5b0da	0.029991556
65	0x3d071a37	0.032983985
66	0xbcd9f0d2	-0.02660409
67	0xbd43cd30	-0.047803104
68	0xbc21b9c9	-0.009870955
69	0xbd1f8770	-0.038947523
70	0x3cf189c0	0.02948463
71	0xbd248ad1	-0.04017145
72	0xbd127a0f	-0.035760935
73	0x3cfad7de	0.030620512
74	0xbc72062c	-0.014771979
75	0xbb99f9a0	-0.004698947
76	0xbd220550	-0.039555848
77	0x3c2942b0	0.010330841
78	0xbd149810	-0.03627783
79	0x3cc6a1c2	0.024247054
80	0xbc15e564	-0.009148929
81	0x3d02c6ff	0.03192806
82	0x3d062793	0.032752585
83	0xbd025164	-0.0318159
84	0xbcebf077	-0.028801186
85	0x3ccc472b	0.02493628
86	0x3ceb3c1f	0.028715191
87	0x3cd74d51	0.026281985
88	0x3c9c6a81	0.019093754
89	0xbc6ac85a	-0.014329994
90	0x3ced6e56	0.028983276
91	0xbd0cfffb	-0.03442381
92	0xbd028184	-0.031861797
93	0xbcfc4650	-0.030795246
94	0x3d1b67ad	0.03794067
95	0x3c21ac2c	0.009867709
96	0x3ce7c412	0.028291736
97	0xbcdc079b	-0.026859095
98	0x3d09abd5	0.033611137
99	0xbb38ee24	-0.0028218115
100	0x3c94aff7	0.018150313
101	0xbb15bea2	-0.0022849222
102	0xbd30e619	-0.04318819
103	0x3ad9968e	0.0016600655
104	0xbd0a9953	-0.033837628
105	0xbc877990	-0.016537458
106	0xbb9fec89	-0.004880492
107	0xbca73221	-0.020409646
108	0x3709e05b	8.218073e-06
109	0xbc50b5a3	-0.012738618
110	0xbcbef7c3	-0.023311501
111	0xbc63ed8d	-0.013911617
112	0xbd4130f9	-0.047165845
113	0xbcce7bb3	-0.025205469
114	0x3c04b1a4	0.008098993
115	0x3cb88c42	0.022527818
116	0xbd18a503	-0.037266742
117	0xbc8f4ef9	-0.017493712
118	0x3c17157e	0.009221433
119	0x3ce75f15	0.02824358
120	0x3d0e4f09	0.034743343
121	0xbcc0d22f	-0.023537723
122	0xbd2d4da6	-0.04231038
123	0xbc5b301f	-0.013378172
124	0x3ceb0baf	0.028692095
125	0xbc1bafc5	-0.009502356
126	0xbd1235ec	-0.035695955
127	0xbd18946c	-0.03725092
128	0xbc899efb	-0.01679944
129	0x3cfd9839	0.030956374
130	0xbc9db68a	-0.01925208
131	0xbc7b2fbc	-0.015331205
132	0x3be9f22c	0.007139465
133	0xbd36433e	-0.04449772
134	0x3c56ac64	0.013102625
135	0xbc0bdf30	-0.008537099
136	0x3cd8ac02	0.026449207
137	0xbc393256	-0.011303505
138	0x3b560150	0.003265459
139	0x3d1d94e7	0.038472082
140	0x3c1329ec	0.008982163
141	0xbd16c3af	-0.036807712
142	0x3d008867	0.031380083
143	0x3c9f3d36	0.019438367
144	0x3bbb829c	0.005722357
145	0x3cef4433	0.029207325
146	0xbceccc7c	-0.0289061
147	0x3cc7ffc9	0.02441396
148	0xbd381516	-0.044941984
149	0xbcbca84e	-0.023029473
150	0xbd009c56	-0.031399094
151	0xbbffbb57	-0.007804315
152	0x3ce2b1fa	0.027672756
153	0x3cafc715	0.021457234
154	0x3b34fe79	0.0027617498
155	0xbcc8d6c0	-0.024516463
156	0xbd29388e	-0.0413137
157	0x3d0734f5	0.033009488
158	0xbd1d1869	-0.038353357
159	0xbc2e1631	-0.010625408
160	0x3cf8e15e	0.030380901
161	0x3d1d473b	0.03839801
162	0x3c7d110f	0.015445962
163	0x3d0bd0cf	0.034134682
164	0xbd20af9c	-0.039229974
165	0x3ce2d7e7	0.02769084
166	0x3a50c90a	0.00079645275
167	0xbb20e400	-0.002454996
168	0x3cbfa160	0.02339238
169	0xbcedbcc3	-0.029020673
170	0x3cf1e63a	0.029528726
171	0x3c597899	0.013273382
172	0xbc41769a	-0.011808062
173	0xbccbc1e3	-0.024872726
174	0xbd01dcef	-0.03170484
175	0x3cf2c65c	0.0296356
176	0xbd03a7e2	-0.032142527
177	0x3c779615	0.015111466
178	0xbcf035e4	-0.029322572
179	0x3aed2360	0.0018092208
180	0xbc660d27	-0.014041222
181	0xbcd53ec9	-0.026030915
182	0x3cbf315e	0.02333897
183	0xbcd700df	-0.026245533
184	0xbcb356a5	-0.021891901
185	0x3bc3562a	0.0059611993
186	0xbd0d59ba	-0.034509398
187	0xbbe0eaa7	-0.0068639102
188	0x3d00f04f	0.031479176
189	0xbd15cb51	-0.03657085
190	0x3c921e65	0.017836759
191	0x3d05863f	0.03259873
192	0x3c079908	0.008276232
193	0x3cfcf023	0.030876225
194	0x3c863ed1	0.016387375
195	0xbcbca742	-0.023028973
196	0xbce68eb8	-0.028144225
197	0x3d032238	0.032015055
198	0xbc288300	-0.010285139
199	0xbcc82b08	-0.024434581
200	0xbbaf28c8	-0.0053454377
201	0xbc63c940	-0.013902962
202	0x3c990702	0.0186801
203	0xbc98ceeb	-0.018653354
204	0xbca6bf5e	-0.020354923
205	0x3d0b127d	0.03395318
206	0xbc6b041c	-0.0143442415
207	0x3c6b055a	0.014344538
208	0xbd35198d	-0.04421382
209	0xbbe67846	-0.0070333807
210	0xbd032925	-0.03202166
211	0x3bf260c4	0.0073967893
212	0xbb15e5bd	-0.002287253
213	0x3b940a9d	0.0045178668
214	0x3c6cc1f5	0.01445054
215	0xbd28ccb2	-0.041210838
216	0xbd0285d4	-0.03186591
217	0x3c40e80c	0.011774074
218	0xbcbe58c6	-0.02323569
219	0xbc86627c	-0.016404383
220	0xbc528f7b	-0.012851591
221	0xbbff1648	-0.0077846386
222	0xbbbc2b0f	-0.0057424377
223	0xbd1a938d	-0.03773837
224	0xbcfcb0ae	-0.030845966
225	0xbba6c3f0	-0.0050892755
226	0x3c47f407	0.012204177
227	0xbb87aef2	-0.004140728
228	0x3c8e6c79	0.017385708
229	0xbd40b013	-0.047042917
230	0x3ccdbd6b	0.025114736
231	0x3c6764df	0.014123171
232	0xbcfb91d8	-0.030709192
233	0xbd3cd897	-0.046104994
234	0x3b58c5a7	0.0033076794
235	0xbd15c0ac	-0.0365607
236	0x3ca51930	0.020153612
237	0x3c859cd3	0.016310131
238	0x3b8e70c2	0.004346938
239	0x3c0fa4f5	0.008767356
240	0xbd08125a	-0.033220626
241	0xbcfeae94	-0.031089105
242	0xbb1bb703	-0.0023760207
243	0xbd02fb7f	-0.031978127
244	0x3c7acc7f	0.015307545
245	0x3d02a562	0.031896003
246	0xbbbc11e6	-0.0057394383
247	0x3cdbef93	0.026847636
248	0xbd094fbb	-0.033523303
249	0xbb8994c5	-0.004198643
250	0xbc460b57	-0.012087665
251	0xbc0af8c7	-0.008482165
252	0x3bd188d6	0.006394486
253	0xbd2f15aa	-0.04274527
254	0x3d0138bf	0.031548258
255	0xbc483245	-0.012219016
